models/hey_Venessa.tflite (tflite, 206992 bytes, 9 tensors)

arith.constant f4 [1, 32]
000000 f4 80 ac be ec bc 53 3e bb d1 fd bc 17 e3 b1 be
       -0.33692133 0.20677537 -0.030983796 -0.34743568
000010 ec 1b d4 3c bf 4f b2 3c 85 76 ad be 5e 00 35 3e
       0.02589222 0.021766542 -0.33879486 0.17675921
000020 ec 6c 4f 3b 7c 68 9e bd 03 17 16 3e 14 a4 1b bc
       0.0031650616 -0.077347726 0.14657216 -0.0094995685
000030 44 b0 a1 3b ce 4a 9f be e2 86 3d 3e 8f f7 c1 be
       0.0049343426 -0.3111176 0.18508485 -0.37884185
000040 73 bd c4 be 7f 2b 9a 3d 0f 92 0e 3d ec 0c a7 be
       -0.38425788 0.075278275 0.03480726 -0.32627046
000050 22 02 ab be f2 32 0e 3e bf 76 2d 3e 4d 97 43 3e
       -0.33400065 0.13886622 0.1693983 0.19100685
000060 81 43 13 bd 50 05 26 3e a9 3f 40 3e 2b e3 05 3e
       -0.03595305 0.16212964 0.18774284 0.13074939
000070 f2 4a 9f 3d 8c 2d 56 3c 61 91 2e 3d 8f bc 21 3e
       0.077779666 0.013072383 0.042619113 0.15794586

arith.constant1 f4 [32, 32]
000000 35 dc 23 3e ed 81 01 3e b2 cd 0b 3e 21 77 a6 3b
       0.16001971 0.12647219 0.13652685 0.0050801192
000010 13 83 28 3d 26 c3 c6 bd 18 72 f8 3d 53 c7 8c 3a
       0.041140627 -0.0970519 0.12131137 0.0010740556
000020 84 9a cc 3c 0f 20 d0 3d 4b 37 98 bc 6c 4f d6 3b
       0.024976023 0.10162365 -0.018581053 0.0065402295
000030 66 2a 01 bd d2 c5 e4 bd 1c 54 e9 3d a4 e7 0f bd
       -0.031534575 -0.11170544 0.11392996 -0.03513302
000040 3d 1a f3 bd 61 c9 1c be f8 ae ab 3d 8d ce ae bd
       -0.11870239 -0.15311195 0.08382982 -0.0853549
000050 d5 c3 17 be f2 eb f5 3d ff 5a 19 3e de 59 af 3a
       -0.14820798 0.120078936 0.14976119 0.0013378223
000060 6c 73 93 bc a9 67 3c bd 3e 88 b3 3d 34 c9 af 3d
       -0.017999373 -0.045997296 0.087662205 0.08583298
000070 df 18 02 bd 28 eb f3 3d 71 6d f8 3d ff db 82 3d
       -0.031762 0.11910087 0.12130249 0.06389617
000080 fa 0e 8a 3c 9d eb 19 3e ca f7 62 bd c1 b1 83 bd
       0.016852845 0.15031286 -0.05541209 -0.06430388
000090 58 b7 3c 3e f4 f4 62 bd 61 aa 92 3d 10 26 74 bd
       0.18429315 -0.055409387 0.071614034 -0.05960661
0000a0 d3 20 83 bd 67 1b 19 be ac d4 46 bb 94 94 03 be
       -0.06402745 -0.1495186 -0.0030339165 -0.12849647
0000b0 bb 79 17 3e b9 29 8a 3d ee ca 21 bd ff 94 c4 bd
       0.1479253 0.06746239 -0.03950017 -0.09598731
0000c0 0e d8 3f be cd 01 ae 3d c1 84 dd 3c 99 a9 fe 3d
       -0.18734762 0.08496437 0.027040841 0.12434692
0000d0 6c ea b9 bd b8 85 c9 bd ad 8a 2c bb 62 03 f4 bd
       -0.090779155 -0.09839958 -0.0026327774 -0.11914708
0000e0 4d 94 9a bd ba ec 2a bd 96 d4 e6 3d 00 a8 d0 bd
       -0.075478174 -0.041729666 0.11271016 -0.101882935
0000f0 cb 1e e5 bd a4 8f 3b 3c 38 04 cb bd e6 c3 aa 3d
       -0.11187514 0.011447821 -0.09912914 0.08338146
000100 86 b7 52 bd 40 cb fb 3d 52 67 78 3c 31 d1 6e bd
       -0.051444553 0.12294626 0.015161352 -0.05830497
000110 e1 ff 11 3d 69 d2 b4 3d 5d 0c b4 3d 2f 64 10 be
       0.035644416 0.08829195 0.087914206 -0.14100717
000120 fa 73 97 bd 42 41 a3 bc 45 5b 4f bd c7 9c b8 bd
       -0.07395168 -0.019928578 -0.05062415 -0.09014278
000130 bd 66 4e bc 06 b9 be 3d 13 27 0b 3e c8 92 c6 bd
       -0.012597737 0.09312634 0.13589124 -0.09695965
000140 61 1a 9b 3c dc dd df bd 15 12 f6 3c 1f e3 1f 3d
       0.018933477 -0.10930988 0.030037919 0.03903496
000150 e7 36 0b be 62 b3 3d 3d b5 dd ca bd f5 0e 2f be
       -0.13595162 0.04631365 -0.099055685 -0.1709555
000160 57 13 2a 3d e0 4d b2 3d 59 37 98 3c 86 bd 2d be
       0.04152235 0.0870626 0.01858108 -0.16966829
000170 a1 1a b1 bd b6 46 0d 3e aa 25 be bd 9a a8 20 bd
       -0.08647657 0.13796505 -0.092845276 -0.03922329
000180 fa a1 12 be a0 7a 24 be d9 70 b0 3d 81 cf dd bd
       -0.14319602 -0.16062403 0.08615274 -0.10830594
000190 0d 5d 92 bb ea fb d1 3c 2a 58 29 be af fc d6 3d
       -0.004466659 0.025632817 -0.16537538 0.10497414
0001a0 52 2a 7a bd 15 06 22 3e 3a 3a 17 bd 65 a7 e3 3d
       -0.061075516 0.15822633 -0.036920764 0.11115912
0001b0 71 fe b7 3c e9 ed d8 bc 56 88 14 3e 57 af 97 3d
       0.022460194 -0.026480632 0.14505133 0.0740649
0001c0 42 2e 99 bc c8 90 26 be f4 68 8a 3d 3f bf a5 bd
       -0.018698815 -0.16266167 0.067582995 -0.08093118
0001d0 8f df ad bd 00 dc 3a bd cc d4 33 be f2 3b 05 3e
       -0.08489906 -0.045619965 -0.17561644 0.13011149
0001e0 56 01 7e bd 1e a1 25 be 73 ef 19 3e 9b a2 0f be
       -0.062012993 -0.16174743 0.15032749 -0.14026873
0001f0 11 0d 3e bd 53 79 d3 3c 7a 8c 70 bd 7a 8d e0 bd
       -0.04639918 0.025814688 -0.05872772 -0.109644845
000200 82 85 1d bd ac e9 16 3e 65 68 19 be 79 e7 11 be
       -0.0384574 0.14737576 -0.1498123 -0.14248456
000210 32 3e 05 be c3 c3 2f 3e 36 ea 38 bd db f4 c2 3d
       -0.13012007 0.17164521 -0.045145236 0.09519359
000220 69 b8 c2 bd 3f 77 24 3d 25 83 d4 bd 8a 86 fc 3c
       -0.0950783 0.040152784 -0.10376576 0.030825872
000230 15 d4 ea bd 5f 81 d6 bc 73 de bb bd 1b 32 74 3c
       -0.11466233 -0.026184736 -0.09173288 0.014904524
000240 01 2f ab bd eb 27 09 3e ef 10 a0 3d 6a b0 83 3d
       -0.08358575 0.13394134 0.0781573 0.06430133
000250 c1 a5 d5 bd 6d 52 13 be e3 6a fa 3d 43 0f 5a 3d
       -0.10432006 -0.14386912 0.12227418 0.05323721
000260 f0 c5 8d 3d b5 33 df bd 74 40 11 3e b0 30 cb 3d
       0.06922519 -0.10898534 0.14184743 0.09921396
000270 fe 87 22 3e 2f 2f ea 3d 3d 76 2b 3e ab 19 b8 bd
       0.1587219 0.11434781 0.16744323 -0.08989271
000280 2b 28 07 3d a1 ed 22 bc d9 e3 bb bc bb 50 eb 3d
       0.03299729 -0.00994435 -0.022935795 0.114900075
000290 0a 44 89 3d d2 7d 22 3d c2 9d c9 bd c1 37 ed bd
       0.067024305 0.039670773 -0.09844543 -0.115829
0002a0 d1 3c f8 bd 3d 73 09 bd 18 1d 5f bd 89 5e eb bd
       -0.12120975 -0.033557165 -0.054471105 -0.114926405
0002b0 be 99 72 3b 4a 8a d3 bd 08 dc a0 3d 7a 90 17 3d
       0.0037017907 -0.10329111 0.07854468 0.037003018
0002c0 b7 41 eb bd ec 11 41 bd e0 97 97 bd fd cc ba bd
       -0.114871435 -0.047136232 -0.07402015 -0.0912113
0002d0 63 0e 13 bd 15 f1 42 bc 0f 7b c4 bb 6f ef 4a 3d
       -0.035902392 -0.011898299 -0.005996115 0.049544748
0002e0 58 86 e9 bd 46 a6 0b be f7 11 1a 3e c6 9a 03 3e
       -0.11402577 -0.13637647 0.15045916 0.1285201
0002f0 c9 56 dd bd e2 ad 0b 3e 64 cb 22 be 13 ca 2c 3e
       -0.108075686 0.1364055 -0.158979 0.1687396
000300 be 24 dc 3d f2 0d a8 bc 81 e4 09 3e cc b8 0f be
       0.107491955 -0.020514462 0.13466074 -0.14035338
000310 b3 48 78 bd ea 68 30 3c 23 38 d0 3c 59 f8 e4 bd
       -0.060616206 0.010767201 0.025417393 -0.11180181
000320 37 f5 30 be 5b c6 a7 bd bb fb 12 be db 54 3d 3d
       -0.17281042 -0.0819213 -0.1435384 0.046223503
000330 24 c3 b3 bd a2 f9 03 be 15 01 b3 3d 1c 23 11 3e
       -0.087774545 -0.12888196 0.08740441 0.1417355
000340 b7 43 7e 3c 2a 1f a1 3d 55 29 f9 3d d6 c3 a7 bd
       0.015519074 0.07867272 0.121660866 -0.081916496
000350 e2 f6 12 be d3 7c 89 bd 95 99 00 be 5c 88 94 3d
       -0.14351991 -0.067132615 -0.12558587 0.07252571
000360 30 26 04 3e 58 cc 1c 3e 60 44 c3 3d 3d 76 0b bd
       0.12905192 0.15312326 0.09534526 -0.034048308
000370 3a 54 9b 3d 9d 68 b6 bd 3f c0 a7 3d 4f 74 24 3d
       0.07584424 -0.08906672 0.08190965 0.040149983
000380 6b 98 8d bc f9 6f 27 3e 32 d9 72 bc e5 d7 61 3e
       -0.017284593 0.16351308 -0.014822291 0.22055013
000390 bc 3e 84 3d ac 63 5f bd 35 43 b1 bd fe 65 96 bd
       0.06457278 -0.054538414 -0.08655397 -0.07343672
0003a0 3a bb 21 3e db 3b 7a 3d 46 c8 ae 3d c6 fa ab 3b
       0.15794078 0.06109224 0.08534293 0.0052484004
0003b0 71 0d 73 bd 09 08 95 b9 ba b6 75 bc 2f 98 56 bc
       -0.05933899 -0.0002842548 -0.014997179 -0.013097807
0003c0 db d2 7f 3d b7 e6 87 bd 91 3f e8 bd 0f f7 cd 3d
       0.062456947 -0.06635802 -0.11340249 0.10056888
0003d0 0c b4 10 be d0 d3 a3 bd ad 50 0e 3e 0f 17 18 be
       -0.14131182 -0.079993844 0.13897963 -0.14852546
0003e0 71 2b d3 bd 67 42 20 bd bd f8 98 3d ee 54 ad bc
       -0.1031102 -0.039125826 0.07469318 -0.021158662
0003f0 89 85 1f bd a7 0b f9 3c ce ad f9 3d 54 9f b2 3d
       -0.03894571 0.030401064 0.12191354 0.08721796

arith.constant2 f4 [32, 1536]
000000 3c 18 b5 b9 03 55 7b 3b 61 3e 5d 3c 02 1b 68 bc
       -0.00034541066 0.0038350231 0.013503642 -0.014166595
000010 bc 5a d6 3b 14 e9 10 3c cb 37 dd bc d2 d3 84 bc
       0.006541578 0.008844633 -0.027004143 -0.016214285
000020 c1 27 f6 3c a1 39 89 3c 70 ca ab bb 7c 7b f1 bc
       0.030048253 0.016751112 -0.0052426383 -0.029477827
000030 cb d5 ec bb a9 73 1a 3c 95 41 22 3c a1 bf 33 3c
       -0.0072276345 0.00942699 0.009903331 0.010970981
000040 58 8b 97 3c e8 f1 ab 3b e1 ec 33 3c f8 bd 1c bc
       0.018499061 0.0052473433 0.010981769 -0.009566776
000050 e2 12 2e 3c b1 a7 c1 3c 34 0e 03 bc 3c 72 02 3d
       0.010624619 0.023639532 -0.007998992 0.031847224
000060 3d 27 dc bc 4d 68 aa 3c c4 e6 08 bc 03 88 cb 3c
       -0.026874179 0.020801688 -0.0083558 0.024845129
000070 62 0d 6c ba 4e 7e 63 bc 74 be b0 3b 85 35 b6 bb
       -0.000900468 -0.013885094 0.0053937975 -0.0055605792
000080 4f 83 84 3b b4 02 c1 3c 80 b4 6d bc d7 6f bc 3c
       0.0040439735 0.02356086 -0.014508367 0.023002548
000090 26 c9 67 3a 54 76 a8 3c 23 e9 0b ba 2e 63 47 bc
       0.0008841924 0.020564236 -0.0005337169 -0.012169642
0000a0 79 e5 b2 3b 81 69 75 3c bc 52 1f 3b 4f 2d 5d 3b
       0.005459484 0.014978767 0.0024310788 0.003374893
0000b0 6f 4f d2 3b af d9 d0 3b c7 1b 54 bc 68 ec 86 3c
       0.0064181606 0.006373606 -0.012946076 0.01647015
0000c0 be 6f 57 3c 59 61 42 bc da 6f 44 3c 79 1b 8a 3b
       0.0131492 -0.01186403 0.011989558 0.004214701
0000d0 31 35 54 bb e5 0d a4 bc 96 ed b0 bc a7 b1 7c bc
       -0.0032380337 -0.020026157 -0.021597665 -0.015423215
0000e0 52 8a e4 bb 3e b2 7f bc 73 3e 72 3c 67 ab 6f 3a
       -0.006974497 -0.015606461 0.014785397 0.00091426674
0000f0 9a 2d 54 bc 45 71 09 3c 4e 05 88 bb 9e 00 a3 3c
       -0.012950325 0.008388822 -0.004151023 0.019897755
000100 74 dc ad 3c 0e 90 6e 3c fc 7d ad bc f1 7b d4 bc
       0.021223284 0.0145607125 -0.021178238 -0.025938006
000110 99 f7 88 3b 39 4f 01 bd e2 68 f4 bc ce 59 52 bc
       0.0041799066 -0.031569693 -0.029835168 -0.012838794
000120 35 6e 73 3c e8 8e a6 bc 9b 8c 66 bc 8c 42 ea bb
       0.014857818 -0.020331815 -0.014071609 -0.0071490463
000130 4b 67 bb 3b 4d a7 65 bc ad 3a 57 3c 40 fd 80 bc
       0.0057191006 -0.014016938 0.013136548 -0.015745759
000140 9e 0d 6a 3c ea 9b 2b 3c 15 ab 59 3c c0 28 26 3c
       0.014285473 0.0104741845 0.013285418 0.0101415515
000150 db 16 f3 bb bc cb 3c 3d 86 b9 38 bc 5f b0 b2 bc
       -0.007418496 0.046092734 -0.011274701 -0.021812616
000160 cf be 09 bc b6 ec 2d 3c 3a 0a fe bc 82 40 a0 3c
       -0.008407309 0.010615518 -0.031010736 0.01956201
000170 de f1 49 3c 6b 71 0f 39 ae 78 91 bc 26 55 a8 bb
       0.012325732 0.00013679794 -0.01775774 -0.0051371036
000180 04 8c b8 3b 2e 71 a7 b9 79 b8 03 3d c9 43 4b 3c
       0.0056319255 -0.00031937048 0.03215835 0.012406298
000190 b7 a6 4c bc 79 9b 2b 3a 5a ac d9 3c 56 5c bb bc
       -0.01249092 0.00065462996 0.026571441 -0.022871178
0001a0 43 81 30 3b f5 f6 a9 bb 2f 6e 3d 3c ab 8a 33 bc
       0.0026932515 -0.0051869103 0.011561914 -0.010958354
0001b0 c9 72 66 39 80 b6 f6 bb df 80 02 3c b8 eb 57 3b
       0.0002197727 -0.00752908 0.007965296 0.0032946896
0001c0 5c 62 86 3c 35 5c 47 3b 06 79 aa 3c ae c1 d2 bb
       0.016404323 0.003041995 0.020809662 -0.00643178
0001d0 18 57 61 bc 6c 70 a6 bc c9 12 12 3c b3 58 8d 3c
       -0.013753675 -0.020317279 0.008915612 0.01725421
0001e0 8d ea 55 ba 4e cc 0e 3c 70 a9 a8 bc 12 27 7f bc
       -0.0008160256 0.008715702 -0.020588607 -0.01557328
0001f0 af 10 44 bc 7b ad 98 3c 06 7e a2 3b 5d 96 4e 3c
       -0.011966868 0.01863741 0.004958871 0.012609092
000200 53 2d d0 bc 22 8c d7 3b 9a 77 0d bc e3 a5 71 bb
       -0.025412237 0.0065779844 -0.008634472 -0.0036872558
000210 31 84 e1 bb 51 07 a6 3c ce c7 be bb 41 6d 9c 3c
       -0.0068822135 0.02026716 -0.0058221584 0.019095065
000220 7d 91 4b 3c 7e 92 5c 3c 7f 03 6d 3c 13 6a 55 bc
       0.012424824 0.013462661 0.014466166 -0.013025778
000230 6d 7e 40 3a 80 a3 bb bb f6 e3 e6 bc 10 85 4a bc
       0.00073430577 -0.005726278 -0.028184872 -0.012360826
000240 db fa 01 3d 7c 12 de ba 9b 5a 69 bc 57 37 97 3c
       0.031733375 -0.0016942765 -0.014242793 0.018459005
000250 30 29 f4 3b d3 70 9f 3c 72 0e 96 3c db d3 b5 3a
       0.007451199 0.019462978 0.018317435 0.0013872342
000260 37 fc a4 bc d1 99 81 3c 77 6f 8d bc 59 a4 56 bc
       -0.020139797 0.015820416 -0.017265065 -0.013100707
000270 ad a8 4c 3c 32 c0 9b 3b ec c1 9a bc 76 24 3a 3c
       0.012491387 0.004753136 -0.018891297 0.011361232
000280 f5 d3 0d 3b de f8 cc 3c 1b a9 0e bd 6c bd 63 bc
       0.0021641229 0.025021013 -0.03482924 -0.013900142
000290 04 18 6b 3c 16 89 73 3c b8 c8 bb bb 29 9e 30 bc
       0.0143489875 0.014864227 -0.0057307146 -0.010779896
0002a0 f8 ac 8e bc 36 f7 33 bb 2d 21 30 bc a6 58 c3 bc
       -0.017416462 -0.0027460582 -0.010750097 -0.023845982
0002b0 ba f8 1b 3b 50 a7 17 3c a2 75 d4 bc 9e a6 da bc
       0.0023799376 0.009256199 -0.025934998 -0.026690777
0002c0 1c 65 84 3c 09 b2 1b 3c a1 99 31 3c 44 f6 46 bc
       0.016161494 0.009502896 0.010839851 -0.012143675
0002d0 9e e5 85 bb 20 b9 3c 3b 56 5e 86 3c e4 7f 2f 3c
       -0.0040862104 0.0028796867 0.016402405 0.010711644
0002e0 72 65 e3 3b eb 54 52 3c 1c 8e 2f bc 0b 19 90 3c
       0.0069395835 0.012837629 -0.010715034 0.017590066
0002f0 b6 ac 35 3c 83 f3 9d 3c af 2e b9 bc 25 e0 66 bc
       0.011088541 0.019281154 -0.022605268 -0.014091526
000300 8b f8 85 bb 91 66 a5 3c 44 ae dd 3a 97 55 31 3d
       -0.0040884665 0.020190509 0.0016912897 0.043294515
000310 d9 f4 79 3c d3 20 9f 3c aa 3e 9b 3b 5f 44 5d 3c
       0.01525613 0.019424831 0.0047376947 0.0135050705
000320 76 a9 46 ba 80 ff 96 bc c1 30 01 bc de 2d e0 bb
       -0.0007578352 -0.018432379 -0.007885159 -0.0068414053
000330 be b5 d7 3b 00 72 4c bc 78 df 1e bc 90 03 8c bc
       0.0065829447 -0.012478352 -0.009696834 -0.017091542
000340 2a f9 29 bc 44 2a d6 bc e2 fd 28 ba b9 24 d8 3b
       -0.010374347 -0.0261432 -0.0006446523 0.0065961746
000350 ae 21 f5 3c 51 b9 8d 3a 54 06 0a bc dc 56 65 ba
       0.029923286 0.0010812675 -0.00842436 -0.00087486
000360 12 e2 4e 3c 7f 9e f4 bb c9 95 ee bb d3 b2 9c 3c
       0.012627142 -0.0074651833 -0.0072810394 0.019128239
000370 fb e3 9e 3b f8 4a c0 3c e9 16 78 bc 50 53 8d 3c
       0.0048489547 0.023473248 -0.015142181 0.01725164
000380 5f 37 7e 3c 1a d6 8f bc dc 18 a0 bc 60 24 74 3c
       0.015516131 -0.017558146 -0.019543104 0.014901251
000390 a3 78 21 bc f6 3b 00 3c 2d af 74 3c f1 52 37 bc
       -0.009855422 0.007826796 0.014934343 -0.011189208
0003a0 be e8 c6 3a 52 ee bf bb b5 62 67 3b 6e b9 aa 3b
       0.0015175564 -0.0058572674 0.0035306637 0.005210093
0003b0 7a 50 a6 bc 49 06 35 bc 85 a4 9d 3c 8f 04 04 bc
       -0.020302046 -0.011048862 0.019243488 -0.0080577275
0003c0 f2 ef 3e 3c e7 ae ca bc 92 08 4a bb b1 45 bf 3c
       0.011653887 -0.024741603 -0.0030827862 0.023348661
0003d0 7f 35 0a 3b 87 40 8a bc 57 a0 5b bc ab 7e a7 3c
       0.0021089015 -0.016876472 -0.013404927 0.020446142
0003e0 34 58 85 bc 2c 0a d3 3b f5 03 8e bc ef 6f 6f 3c
       -0.01627741 0.0064404216 -0.017335871 0.014614089
0003f0 de 88 27 bb eb 91 06 bd af 7b ab 3b 6c 59 57 bc
       -0.0025563757 -0.032854002 0.00523325 -0.013143878

model_8/tf.__operators__.add/AddV2/y f4 [32]
000000 e1 80 f0 3c ea 26 84 3c 9e 10 5e bc 29 98 d7 bc
       0.02935833 0.016131837 -0.0135537665 -0.026317673
000010 db 77 be 3c 01 33 d1 bc dc ab ac 3c bf 51 21 bc
       0.02325051 -0.025537016 0.021078043 -0.00984615
000020 81 df b6 3a 4e dc 93 bb 9a fd 13 bc 06 6e a5 ba
       0.0013952107 -0.0045123463 -0.009032631 -0.001262129
000030 a3 2a fd 3c 67 69 de 39 be 93 52 3c 4b c6 a1 bc
       0.03090412 0.0004242167 0.012852607 -0.019747874
000040 2a 67 b6 3b 1b 75 26 3c 98 23 ff 39 c2 d9 3c 3c
       0.0055664973 0.010159756 0.0004866391 0.011526527
000050 ac 2b 2d bc 41 da 60 bc a1 d9 5b 3c 3a 57 01 3c
       -0.010569494 -0.013723911 0.013418586 0.007894332
000060 1c a0 6c bc b2 b2 93 bb 94 52 67 bc 73 f0 9c bc
       -0.01444247 -0.004507386 -0.014118809 -0.019157624
000070 04 23 bb bc a7 0b 12 bb 24 f0 2c 3c a9 bf bc 3b
       -0.022843845 -0.0022284777 0.010555301 0.0057601524

model_8/tf.__operators__.add_1/AddV2/y f4 [32]
000000 0b 6e c5 bd 45 fd 93 bc 4c 87 fe bd 4f a4 01 3e
       -0.0964013 -0.018065104 -0.124281496 0.12660335
000010 d5 6e b7 bd d0 49 2c 3e f7 1e 05 be 6b f3 82 3d
       -0.089566864 0.16825032 -0.13000093 0.063940845
000020 0c c4 eb 3d 2e 1c 99 bd cb 44 99 3d bd c4 17 be
       0.11512002 -0.07476078 0.07483824 -0.14821143
000030 f9 9a f3 3d 10 04 a9 3d ed a0 1a 3e d5 77 c1 bd
       0.11894793 0.08252728 0.15100451 -0.09446684
000040 8c 31 49 3d ea ab b7 bc b0 a1 13 bd 94 b7 41 bd
       0.049119517 -0.022420842 -0.03604287 -0.047294214
000050 5c 2b 11 be 82 5e ee 3b f1 9d cc bd 32 d6 96 bd
       -0.14176697 0.00727445 -0.099910624 -0.07365073
000060 3b af a5 3c eb 75 22 3e 70 2e 4e 3d 1f 77 19 bd
       0.020225158 0.15865295 0.050337255 -0.03746712
000070 e9 9c 13 3e bb c1 17 bc 21 37 f9 bb 48 aa da bc
       0.14415325 -0.009262498 -0.007605449 -0.026692525

model_8/tf.math.add_2/Add/y f4 [1, 32]
000000 83 fd 65 3c 81 75 de bb f0 fd 35 3c 7a c7 06 3a
       0.014037493 -0.00678891 0.011107907 0.00051414187
000010 86 52 05 3d e2 9b 4a bb 42 75 1d bc ad 22 93 bb
       0.032549404 -0.0030915667 -0.009610476 -0.0044902177
000020 70 a3 8f bc 14 59 0d 3d 46 5b d3 bb 43 82 65 3c
       -0.017533988 0.03450878 -0.0064500896 0.014008108
000030 1f 4b 0d 3d 68 d6 16 3b fe 95 e6 bc 9b 3e 70 3c
       0.03449547 0.002301598 -0.028147694 0.014663364
000040 d1 ca ee 3b 77 46 13 bc 4c 94 dd 3c c9 6f 0e bc
       0.007287361 -0.008988968 0.027048253 -0.008693644
000050 f9 d3 21 3b a9 91 97 bb 85 48 99 bb a1 4f d9 bb
       0.0024692996 -0.0046255183 -0.0046778345 -0.006631807
000060 21 51 0c 3c 95 be c2 3a ca 19 07 bc 79 97 ff bb
       0.0085642645 0.0014857823 -0.008245895 -0.0078000394
000070 93 e7 e4 bb bc e6 2a 3c e1 fb de bb b1 3d e4 3a
       -0.0069856136 0.010430988 -0.0068049286 0.0017413405

model_8/tf.math.add_5/Add/y f4 [1, 32]
000000 50 e4 9d 3e e3 ad a6 3c 5d 9a 30 b7 aa a7 9b 3e
       0.3083825 0.020346588 -1.0526358e-05 0.30401355
000010 57 80 33 bd 1b 2b 23 3c db 74 84 3e 81 c9 1f 3c
       -0.043823566 0.009959008 0.25870404 0.009752632
000020 72 10 82 bb 09 58 2c 3d 05 54 19 bc 3f 51 85 bc
       -0.0039692456 0.042076144 -0.009358411 -0.016274093
000030 65 be 31 bc b8 39 8b 3e 91 13 8b 3c 87 60 bd 3e
       -0.010848616 0.27192473 0.016977103 0.36987707
000040 70 9b 80 3e 34 44 62 bc 00 6a 2f 3d 11 6e 85 3e
       0.2511859 -0.013810206 0.0428257 0.26060537
000050 97 ca 9c 3e 83 4b 50 3c 80 14 21 3d b5 6a f9 3c
       0.30623314 0.012713316 0.03932619 0.03044639
000060 83 0b fd bb cb 89 4b 3c 14 85 a0 3c 0b 50 36 ba
       -0.0077223196 0.012422989 0.019594707 -0.00069546764
000070 f9 49 d0 bb e5 21 ae bd 4c 88 3a bc 05 e3 0f 3d
       -0.0063564745 -0.085025586 -0.011385035 0.035128612

model_8/tf.math.multiply_10/Mul/y f4 [1, 32]
000000 23 2f 81 3f aa 9d 7f 3f 63 7e 7e 3f 19 67 83 3f
       1.009251 0.9984995 0.994116 1.0265838
000010 36 d0 7e 3f cf ee 82 3f 05 6f 7f 3f c7 5a 7e 3f
       0.99536455 1.0229129 0.9977878 0.99357265
000020 61 05 7e 3f 62 34 7e 3f a3 b8 7f 3f be ab 80 3f
       0.9922696 0.9929868 0.9989111 1.0052412
000030 cd 9b 81 3f 8c 5c 7e 3f 5b 4f 7b 3f ef 8e 82 3f
       1.0125672 0.99359965 0.9816796 1.019987
000040 21 dd 80 3f 3a 7c 7f 3f 05 f1 89 3f 46 93 7f 3f
       1.0067483 0.9979893 1.0776678 0.99834096
000050 57 25 80 3f 38 6b 7f 3f 1e 24 80 3f 56 ac 7f 3f
       1.0011395 0.9977298 1.0011022 0.9987234
000060 c1 49 81 3f ef ba 82 3f 75 91 7e 3f 7e a2 7f 3f
       1.0100633 1.0213298 0.994407 0.9985732
000070 f7 fa 7d 3f bd e2 74 3f 31 da 7c 3f c4 fa 80 3f
       0.99211067 0.95658475 0.98770434 1.0076528

model_8/tf.math.multiply_22/Mul/y f4 [1, 32]
000000 45 7c ad 3f 5d d0 87 3f 70 04 80 3f 21 b4 ac 3f
       1.3553549 1.0610462 1.0001354 1.3492471
000010 50 4c 7b 3f 41 54 7f 3f c1 bc 9d 3f d8 8a 82 3f
       0.9816332 0.99737936 1.2323228 1.0198622
000020 60 6a 7f 3f f6 51 81 3f ab 1f 7f 3f f4 54 78 3f
       0.9977169 1.0103137 0.99657696 0.9700463
000030 c8 06 7e 3f a3 65 a1 3f fe 29 82 3f 1a 0c bd 3f
       0.992291 1.2609142 1.0169065 1.4769318
000040 db 92 9e 3f 4e ba 7d 3f 97 1d 85 3f 97 5b 9e 3f
       1.2388567 0.99112403 1.0399655 1.2371701
000050 06 4e ac 3f e7 4e 86 3f ea f2 84 3f de 29 85 3f
       1.3461311 1.0492829 1.0386631 1.0403402
000060 8f 05 7e 3f f2 70 81 3f 10 da 84 3f 55 37 81 3f
       0.9922723 1.0112593 1.0379047 1.0095011
000070 74 1d 80 3f e8 4c 61 3f ce 0d 7f 3f 64 e7 89 3f
       1.0008988 0.88007975 0.9963044 1.077374
